neural_network/my_model.pkl (torch, 881658 bytes, 14 tensors)

weight f4 [256, 128]
0	0x3d91e7e9	0.071243115
1	0xbd87f4e6	-0.066385075
2	0x3d135a70	0.03597492
3	0x3d81d17c	0.06338784
4	0x3db8e270	0.090275645
5	0xbccdc908	-0.025120273
6	0xbd0a0ef9	-0.033705685
7	0xbdf64310	-0.1202451
8	0x3d6aa508	0.057286292
9	0xbdc59363	-0.096472524
10	0x3c951cc9	0.018202202
11	0x3ddf1dc3	0.108943485
12	0xbd5eae9b	-0.054365736
13	0xbd87359e	-0.066020235
14	0xbbb3205f	-0.0054665054
15	0x3db01c10	0.085991025
16	0x3d837cee	0.06420313
17	0xbdab8fd5	-0.08377043
18	0xbd68668d	-0.056738425
19	0xbd984851	-0.07435668
20	0x3c811370	0.015756339
21	0x3d1f5b43	0.038905393
22	0xbc650745	-0.013978784
23	0xbd24b034	-0.040207103
24	0xbdb79ae5	-0.08965091
25	0xbd4815f8	-0.048849076
26	0x3b1f1570	0.0024274252
27	0xbdae937a	-0.08524223
28	0x3b6ec9f6	0.0036436296
29	0x3d5a5495	0.05330332
30	0xbd9e6012	-0.07733168
31	0xbd40e25d	-0.047090877
32	0x3c9b0ffb	0.018928519
33	0xbc4cc81c	-0.012498882
34	0xbd641462	-0.0556835
35	0xbdcf577a	-0.10124107
36	0x3d14eb16	0.036357008
37	0xbcca2fa9	-0.02468093
38	0xbc6baf3d	-0.014385042
39	0xbd400cb3	-0.04688711
40	0xbd115d07	-0.03548911
41	0x3c89a651	0.016802939
42	0x3d4bf6a4	0.04979576
43	0x3d794e40	0.06086564
44	0xbd628810	-0.05530554
45	0xbd91fa20	-0.07127786
46	0x3cd8562b	0.026408276
47	0x3b559850	0.0032592006
48	0xbd96c871	-0.0736245
49	0xbd7c6dc4	-0.06162812
50	0xbd79327d	-0.060839165
51	0x3d008575	0.031377275
52	0xbd6cdfd4	-0.057830647
53	0xbd49a0e8	-0.049225718
54	0xbd6dba7b	-0.05803917
55	0x3b15da8b	0.0022865857
56	0xbd21f351	-0.039538685
57	0x3d339088	0.043839008
58	0x3d8e1cad	0.06939063
59	0xba5a9996	-0.0008338926
60	0xbd86a44a	-0.065743044
61	0x3d9ddded	0.077083446
62	0xbd95b31c	-0.07309553
63	0x3d457f06	0.048216842
64	0x3d53616c	0.05160658
65	0x3c890b57	0.01672904
66	0xbce0c902	-0.027439598
67	0x3d8d54ab	0.06900915
68	0xbd7de19d	-0.06198274
69	0x3e0216df	0.12704037
70	0xbd48a687	-0.048986938
71	0x3dadb2f7	0.084814005
72	0xbd8b2bc6	-0.067954585
73	0x3dab22dd	0.08356259
74	0xbd4e79a7	-0.050408985
75	0x3befbcc3	0.0073162033
76	0xbd1ea858	-0.038734764
77	0xbd819010	-0.06326306
78	0x3bd73996	0.006568144
79	0x3c21301d	0.009838131
80	0x3dc910f1	0.098176844
81	0x3da5a2b0	0.08087671
82	0xbce2e451	-0.02769676
83	0xbd9c340a	-0.07627113
84	0x3d252a04	0.040323272
85	0xbd75076b	-0.059821527
86	0xbdb569e8	-0.08858091
87	0xbc6f0ead	-0.014590901
88	0xbbe1d6a5	-0.0068920427
89	0x3d03da78	0.03219077
90	0x3d119aa3	0.035547864
91	0x3cc69edf	0.024245678
92	0xbdae23bc	-0.085029095
93	0x3d85749c	0.06516382
94	0x3c52ff66	0.012878275
95	0x3d9310d1	0.07180942
96	0x3bd10331	0.0063785543
97	0x3d97536a	0.07388957
98	0x3b04dac3	0.0020271994
99	0xbdc99e83	-0.09844687
100	0xbcf4c3f4	-0.029878594
101	0x3cffbf2d	0.03121909
102	0x3cb8d6d8	0.022563383
103	0x3d76428c	0.060122058
104	0xbcdf7375	-0.027276734
105	0xbd19af1d	-0.037520517
106	0x3d631f38	0.055449694
107	0xbdb2481f	-0.08705162
108	0x3daf9911	0.08574117
109	0xbcb279b9	-0.021786558
110	0xbdaca4f3	-0.08429899
111	0x3ae2dcfa	0.0017308288
112	0x3d7ad65f	0.061239596
113	0xbc1b57a9	-0.009481349
114	0x3978768e	0.00023695288
115	0x3d2474e7	0.04015055
116	0xbd94e11f	-0.07269501
117	0xbda27527	-0.07932501
118	0x3d8298cb	0.06376799
119	0x3d456fc5	0.048202295
120	0xbbe3b0ce	-0.006948567
121	0x3ce4eea7	0.02794583
122	0xbc57d504	-0.0131733455
123	0xbd0b51a6	-0.034013413
124	0xbca66293	-0.020310676
125	0xbbe7a959	-0.0070697484
126	0xbc8f8c9c	-0.017523102
127	0xbd50eb5b	-0.051005702
128	0x3cd4c209	0.02597143
129	0x3db3aacc	0.08772811
130	0xbd94766b	-0.07249149
131	0xbda34cf2	-0.079736605
132	0x3c8a99ed	0.0169191
133	0x3bfee70b	0.0077790073
134	0xbda955f9	-0.08268351
135	0x3c7829a5	0.015146648
136	0xbca1ee4f	-0.019766955
137	0xbdbd022f	-0.09228932
138	0xbd84cfb3	-0.06484928
139	0x3cbab687	0.022792114
140	0x3d1b9e7c	0.03799294
141	0x3c8ac946	0.016941678
142	0xbdc06810	-0.09394848
143	0xbcd1d2a5	-0.025613138
144	0x3d9ac5c0	0.07557249
145	0xbd86f8eb	-0.06590446
146	0xbd21074d	-0.039313603
147	0xbd65a7f8	-0.05606839
148	0xbdd7a116	-0.105287716
149	0x3c0fbc10	0.008772865
150	0xbd266bc6	-0.040630125
151	0x3c83717e	0.016045328
152	0x3d70eb36	0.058818065
153	0xbd72d98e	-0.059289508
154	0xbd88fd6d	-0.06688962
155	0x3d04d5fd	0.032430638
156	0xbd981c46	-0.07427268
157	0x3d80524e	0.062656984
158	0xbdad2587	-0.084544234
159	0x3d175b6a	0.036952414
160	0xbd002624	-0.031286374
161	0xbd197ef6	-0.037474595
162	0xbbf14d00	-0.0073639154
163	0x3d39c6b0	0.0453555
164	0xbdbaa1e9	-0.09112913
165	0xbd47a09d	-0.048737157
166	0xbd858f4e	-0.06521474
167	0x3d6dbe9d	0.05804311
168	0xbc63c814	-0.013902683
169	0xbd40854a	-0.047002114
170	0x3b9a0fc8	0.0047015883
171	0xbc0e13db	-0.008671726
172	0xbd6e5593	-0.05818708
173	0xbcce50e3	-0.025185054
174	0xbc9b7985	-0.018978843
175	0x3d5bd1be	0.053666823
176	0x3d50fce7	0.051022436
177	0xbd44c84a	-0.048042573
178	0x3d4e35f9	0.05034444
179	0x3d2ef5af	0.04271477
180	0x3db7472c	0.08949122
181	0xbceee75e	-0.029163059
182	0xbd183e0e	-0.037168555
183	0xbb4c8e8a	-0.003121289
184	0x3d2dc65f	0.04242551
185	0xbd306b0d	-0.04307084
186	0x3c9c4537	0.019075973
187	0x3bcdbacc	0.0062783714
188	0xbe08a37e	-0.13343617
189	0xbdb08381	-0.086188324
190	0x3d7fa7bc	0.062415823
191	0xbb361f54	-0.002778967
192	0x3d339938	0.043847293
193	0xbd2d560b	-0.042318385
194	0xbd982e09	-0.074306555
195	0x3c404cd1	0.011737064
196	0xbd8fdbea	-0.07024367
197	0x3d94ec4d	0.07271633
198	0x3ce3c9ff	0.02780628
199	0x3bef0e55	0.0072954097
200	0xbd33c9cb	-0.043893617
201	0xbc5481ab	-0.012970368
202	0x3b564c4d	0.0032699287
203	0xbd67a58a	-0.056554355
204	0xbd73819c	-0.059449777
205	0x3d272751	0.04080898
206	0xbd675da3	-0.056485783
207	0xbdaf7244	-0.08566716
208	0x3b18c2f0	0.0023309551
209	0x3d623ba8	0.055232674
210	0x3d4bf185	0.049790878
211	0xbd83ce83	-0.06435873
212	0xbb8f0e39	-0.004365709
213	0x3bf690da	0.007524592
214	0xbd2107d6	-0.039314114
215	0x3d0094f2	0.031392045
216	0x3d06e1ce	0.032930188
217	0x3c0faebb	0.008769686
218	0xbb0f67c1	-0.002188191
219	0x3c8ca84c	0.017170094
220	0xbc090624	-0.00836328
221	0x3ba9f098	0.0051861517
222	0xbd71c2da	-0.059023716
223	0xbdcb785b	-0.09935065
224	0x3ce7b608	0.028285041
225	0x3d02e198	0.031953424
226	0x3cb2f470	0.021845073
227	0x3c8b3f62	0.016997997
228	0x3d6c568f	0.057699736
229	0xbda50e60	-0.080593824
230	0x3c956d00	0.018240452
231	0x3c379543	0.01120502
232	0x3db328c0	0.08748007
233	0xbd82c467	-0.06385117
234	0xbde25e06	-0.1105309
235	0x3cf1c11e	0.02951103
236	0x3cfc83f8	0.030824646
237	0xbdbaf393	-0.09128489
238	0x3d3896de	0.045065753
239	0x384f3d1f	4.940957e-05
240	0xbd41019e	-0.047120683
241	0xbceb3636	-0.028712373
242	0xbd43d1b0	-0.047807395
243	0x3d9c5be2	0.07634713
244	0xbd51bf50	-0.05120784
245	0xbd8cec63	-0.06881025
246	0xbd28a1c8	-0.04116991
247	0xbd19b1a2	-0.03752292
248	0x3db80bb7	0.089866094
249	0xbcc82690	-0.02443245
250	0xbcb7e684	-0.022448786
251	0x3d6283cc	0.055301473
252	0xbce6f1e2	-0.02819151
253	0xbd12e353	-0.035861325
254	0xbdfecb01	-0.12441064
255	0x3d797bd1	0.060909096

bias f4 [256]
0	0x3842b810	4.6424626e-05
1	0x388fc57f	6.855558e-05
2	0x3829fcd0	4.052819e-05
3	0xb9a77dfc	-0.00031946588
4	0xb83012ad	-4.1979063e-05
5	0x379c1bce	1.8609597e-05
6	0xb7dba23b	-2.6182379e-05
7	0xb80ffcef	-3.432942e-05
8	0x36561ea2	3.1906316e-06
9	0x394aa9da	0.00019327496
10	0x381b0a1f	3.6964306e-05
11	0x384d89e9	4.9004248e-05
12	0xb69fa6bc	-4.7579797e-06
13	0xb875dd25	-5.861851e-05
14	0xb8b7137a	-8.729748e-05
15	0x38877356	6.4587846e-05
16	0x383659c2	4.3475775e-05
17	0xb9535795	-0.00020155155
18	0xb7153d47	-8.895359e-06
19	0xb6a59cbd	-4.93563e-06
20	0xb801e715	-3.097121e-05
21	0xb8d6dc41	-0.00010245341
22	0x377291a1	1.4458231e-05
23	0x38503366	4.9638933e-05
24	0xb80acc02	-3.309176e-05
25	0xb8b26778	-8.506974e-05
26	0xb78dd93d	-1.690967e-05
27	0xb83b4272	-4.4646156e-05
28	0x38e0ca95	0.00010718886
29	0xb8489452	-4.782185e-05
30	0xb6ad8cd3	-5.172196e-06
31	0x38dc3b3d	0.000105014515
32	0xb6d12c41	-6.233837e-06
33	0x38a3878d	7.797694e-05
34	0xb8ced834	-9.8631164e-05
35	0xb7176f60	-9.026233e-06
36	0x34ed6386	4.4217103e-07
37	0x373c6e5c	1.1231368e-05
38	0x39367a9a	0.00017402545
39	0x365f03c8	3.323179e-06
40	0xb8b2afe4	-8.5204636e-05
41	0x389dd4f4	7.526009e-05
42	0xb981234b	-0.00024631093
43	0xb93bb9aa	-0.00017902875
44	0xb7801122	-1.5266767e-05
45	0x381db0c9	3.759636e-05
46	0xb74f75f8	-1.2365628e-05
47	0x3827ff36	4.0053586e-05
48	0xb7d91ba6	-2.588129e-05
49	0xb80b97e9	-3.328166e-05
50	0xb7c7fa03	-2.383907e-05
51	0x38fe2ab2	0.000121196164
52	0x390c2aaa	0.00013367334
53	0x38cdcc4e	9.8132165e-05
54	0xb80a3241	-3.2948567e-05
55	0xb796f177	-1.7993834e-05
56	0x38685ab1	5.5397573e-05
57	0x38969c96	7.181724e-05
58	0x384c671f	4.873343e-05
59	0xb7c68586	-2.3665616e-05
60	0xb807f03d	-3.2410248e-05
61	0x38841c43	6.299515e-05
62	0x3887f24e	6.4824344e-05
63	0x3906eb9a	0.00012867004
64	0xb67f0a77	-3.8004052e-06
65	0xb8c9fb98	-9.63129e-05
66	0x3936a11f	0.00017416895
67	0x388b7c45	6.6511835e-05
68	0x3817628a	3.6092977e-05
69	0xb7ab8d5d	-2.0450616e-05
70	0x3780624f	1.5304568e-05
71	0x380ea48d	3.4008688e-05
72	0x388ae097	6.622186e-05
73	0x39044822	0.00012615373
74	0x38b519da	8.635568e-05
75	0xb8bd463b	-9.025304e-05
76	0xb842219b	-4.6284502e-05
77	0x38817cbd	6.174434e-05
78	0xb83ae94c	-4.456313e-05
79	0xb7c6af63	-2.368511e-05
80	0x3800a022	3.0666713e-05
81	0xb89087e2	-6.891765e-05
82	0xb8417a41	-4.6128644e-05
83	0xb6caa9eb	-6.03985e-06
84	0x36b323ab	5.338768e-06
85	0x38a21223	7.72814e-05
86	0x38354eff	4.3227334e-05
87	0x3882481d	6.212315e-05
88	0xb7a7dade	-2.000987e-05
89	0x385288f6	5.0195456e-05
90	0xb565cbbe	-8.560563e-07
91	0xb80285fa	-3.111919e-05
92	0x3906457e	0.00012805124
93	0xb888d4f4	-6.524651e-05
94	0x3860d2c1	5.360204e-05
95	0xb458cf56	-2.0191996e-07
96	0xb82bc489	-4.0952615e-05
97	0x372f684b	1.0455095e-05
98	0x3863a831	5.4277658e-05
99	0xb691a891	-4.3409605e-06
100	0xb835f61f	-4.338298e-05
101	0xb7b7410c	-2.184559e-05
102	0xb7dce040	-2.6330468e-05
103	0x3829f67b	4.0522293e-05
104	0x380c7bd4	3.3493925e-05
105	0x38f6f1ca	0.00011775231
106	0xb805a7af	-3.186584e-05
107	0x3986871b	0.00025659133
108	0x389119ae	6.918922e-05
109	0x37eaa514	2.7971844e-05
110	0x3859698f	5.183514e-05
111	0xb6a605ba	-4.947852e-06
112	0x3841c863	4.620141e-05
113	0xb8b2115f	-8.490937e-05
114	0x37bb4891	2.2325929e-05
115	0x3629e9f6	2.5319146e-06
116	0x38215be0	3.8470956e-05
117	0x3859e3c3	5.194895e-05
118	0xb9b2dd6c	-0.00034115778
119	0x3887bdc3	6.4726475e-05
120	0x38b51351	8.6343505e-05
121	0xb7dc89ec	-2.6290269e-05
122	0x3607d965	2.0243108e-06
123	0x3889bd33	6.56791e-05
124	0xb858a28a	-5.164979e-05
125	0xb8bba456	-8.947465e-05
126	0xb8af71cf	-8.365849e-05
127	0xb7318b14	-1.0582404e-05
128	0x38b8f789	8.819911e-05
129	0x380804d1	3.2429412e-05
130	0xb71985a5	-9.150627e-06
131	0x382018a1	3.816991e-05
132	0x37c57689	2.3539427e-05
133	0xb89bd889	-7.431309e-05
134	0x38712ad1	5.7498753e-05
135	0x35df903d	1.6656774e-06
136	0x37009cae	7.665874e-06
137	0xb89d57c3	-7.50269e-05
138	0x3850776d	4.970229e-05
139	0xb8361dbe	-4.341988e-05
140	0x38975db4	7.217695e-05
141	0x36fc3762	7.5166326e-06
142	0xb8d0ac62	-9.950322e-05
143	0x382df052	4.147023e-05
144	0x386af1ea	5.6015248e-05
145	0xb8db28af	-0.00010450312
146	0x37d16b23	2.4964631e-05
147	0xb8e998dd	-0.00011138779
148	0xb7db268b	-2.6124782e-05
149	0xb93442d7	-0.00017191037
150	0x38c49795	9.374243e-05
151	0xb7c25821	-2.316764e-05
152	0x385145f6	4.989464e-05
153	0x389e6838	7.553439e-05
154	0x38a72c3c	7.97142e-05
155	0xb7b2c449	-2.1310656e-05
156	0x36b3d16a	5.3589947e-06
157	0xb8d1e477	-0.000100084515
158	0xb8592658	-5.1772542e-05
159	0xb81bec1e	-3.717478e-05
160	0x3850edc3	4.9812497e-05
161	0x3863dd19	5.432693e-05
162	0xb8960b67	-7.154681e-05
163	0x38b87cd4	8.797055e-05
164	0x36433442	2.9087682e-06
165	0x386d240a	5.6538767e-05
166	0xb937c547	-0.00017525732
167	0x390f17f5	0.00013646467
168	0x37cd8b10	2.450266e-05
169	0x385b7c19	5.2329244e-05
170	0x37197a8d	9.148044e-06
171	0x37c3b727	2.3331098e-05
172	0x385b6515	5.230781e-05
173	0x37828fd4	1.5564183e-05
174	0x37a94952	2.0180512e-05
175	0xb7bc76ce	-2.246667e-05
176	0xb84a4f02	-4.8234135e-05
177	0x389d7fb0	7.510127e-05
178	0x3722cd4b	9.703751e-06
179	0xb60ca484	-2.0957386e-06
180	0xb8a04636	-7.642472e-05
181	0xb85a7584	-5.2084695e-05
182	0xb863bbd7	-5.4295957e-05
183	0xb8a47127	-7.841206e-05
184	0x37fffb5f	3.0515423e-05
185	0xb7a15c3d	-1.9235647e-05
186	0x37ee7f5f	2.8431123e-05
187	0x373cdea7	1.12575135e-05
188	0xb780cd92	-1.5354515e-05
189	0xb765bf5c	-1.3694018e-05
190	0x382fdf10	4.1930994e-05
191	0x36333ce7	2.6708528e-06
192	0x38df1674	0.00010637651
193	0xb80b6224	-3.3231583e-05
194	0x382f21b4	4.175464e-05
195	0xb7cd902f	-2.4505045e-05
196	0x38ee189a	0.00011353307
197	0xb8984793	-7.2612565e-05
198	0x38007209	3.062378e-05
199	0x382820cc	4.0084866e-05
200	0x3715fc1b	8.93979e-06
201	0x37d5625c	2.543738e-05
202	0x381e18bf	3.7693182e-05
203	0xb8947e08	-7.080665e-05
204	0xb8db8f78	-0.00010469457
205	0xb58be22d	-1.0422133e-06
206	0x383c7399	4.493035e-05
207	0x37792c99	1.485194e-05
208	0x36fb7de0	7.4950367e-06
209	0x36ca72fa	6.033454e-06
210	0x381fa8ea	3.8065868e-05
211	0x3936cc8a	0.0001743307
212	0x3871bbd4	5.7633806e-05
213	0x38aba8eb	8.185379e-05
214	0xb835de89	-4.3361015e-05
215	0x3680d4db	3.839477e-06
216	0x38ead8fd	0.00011198407
217	0x38cbb689	9.713794e-05
218	0x37dd3508	2.6369948e-05
219	0x386372cf	5.422794e-05
220	0xb6d5feba	-6.3775487e-06
221	0x381ddb7b	3.7636124e-05
222	0x3902772d	0.00012442163
223	0x381be737	3.7170215e-05
224	0x386b0157	5.6029614e-05
225	0x37b99799	2.2124312e-05
226	0x38841ed9	6.299996e-05
227	0x37fa717e	2.9855171e-05
228	0xb75bb718	-1.3096047e-05
229	0xb6ff0ee2	-7.601325e-06
230	0xb8925471	-6.977551e-05
231	0x37c39e72	2.3319593e-05
232	0xb731f306	-1.0606605e-05
233	0x38493b75	4.7977508e-05
234	0xb8e7b80c	-0.0001104922
235	0x38cae70e	9.675148e-05
236	0xb7a258ca	-1.935325e-05
237	0x3835b414	4.3321474e-05
238	0x396ad618	0.00022395735
239	0xb73e8c0a	-1.1357488e-05
240	0xb7d3f4d4	-2.5267167e-05
241	0xb888f9ca	-6.531512e-05
242	0xb873feca	-5.8173006e-05
243	0x3747714f	1.1887706e-05
244	0x38833ac4	6.257513e-05
245	0xb7c8ce2a	-2.393786e-05
246	0x3a236643	0.0006233195
247	0x38902c52	6.8747104e-05
248	0x381f9400	3.804639e-05
249	0x3906fdfb	0.00012873851
250	0x3749f098	1.2036551e-05
251	0x38207c60	3.8262806e-05
252	0x38f958aa	0.0001188976
253	0x37b1b5ee	2.1184762e-05
254	0x38df1cee	0.00010638857
255	0x38ba5e89	8.88678e-05

weight f4 [256]
0	0x3f7d147a	0.9885937
1	0x3f816cb0	1.0111294
2	0x3f7c767e	0.98618305
3	0x3f82bb67	1.0213441
4	0x3f867b39	1.0506355
5	0x3f790ff9	0.9729
6	0x3f7abe6f	0.9794683
7	0x3f7b6ee9	0.9821611
8	0x3f837b24	1.0271955
9	0x3f824f83	1.0180515
10	0x3f851e21	1.039982
11	0x3f813b56	1.0096233
12	0x3f810e33	1.0082458
13	0x3f8699a5	1.0515639
14	0x3f85c4c9	1.0450679
15	0x3f7c0b9d	0.9845522
16	0x3f7bd079	0.9836498
17	0x3f804c3d	1.0023266
18	0x3f816e79	1.0111839
19	0x3f7c6cc8	0.98603487
20	0x3f77bdea	0.9677416
21	0x3f8300b9	1.0234596
22	0x3f80a7ef	1.0051249
23	0x3f810102	1.0078433
24	0x3f81f330	1.015234
25	0x3f80e63e	1.0070264
26	0x3f7921bc	0.973171
27	0x3f834c58	1.0257673
28	0x3f7e560a	0.99350035
29	0x3f852e48	1.0404749
30	0x3f81eea5	1.0150954
31	0x3f82cd30	1.0218868
32	0x3f82bdc1	1.0214158
33	0x3f7c5148	0.98561525
34	0x3f864da7	1.0492448
35	0x3f7a8f0b	0.97874516
36	0x3f825cb7	1.0184544
37	0x3f7d4de1	0.9894696
38	0x3f813300	1.0093689
39	0x3f7d4564	0.98934007
40	0x3f81e314	1.0147424
41	0x3f84c6d2	1.0373175
42	0x3f821c72	1.0164931
43	0x3f7fe446	0.9995769
44	0x3f763cbb	0.9618642
45	0x3f80b73d	1.005592
46	0x3f804577	1.0021199
47	0x3f764e24	0.96212983
48	0x3f80425d	1.0020252
49	0x3f7b1122	0.9807302
50	0x3f7d895d	0.99037725
51	0x3f85b0b2	1.0444548
52	0x3f81d758	1.0143843
53	0x3f7dca18	0.99136496
54	0x3f7a0663	0.97665995
55	0x3f7c15c7	0.9847073
56	0x3f802093	1.0009941
57	0x3f7a84cb	0.97858876
58	0x3f802ead	1.0014244
59	0x3f773f4c	0.9658096
60	0x3f7a5f9e	0.9780215
61	0x3f80e1fa	1.0068963
62	0x3f836a60	1.0266838
63	0x3f81700d	1.011232
64	0x3f834bfe	1.0257566
65	0x3f858eb0	1.043417
66	0x3f80dd61	1.006756
67	0x3f814aa0	1.0100899
68	0x3f7e7e69	0.99411637
69	0x3f83adb0	1.028738
70	0x3f80f1d1	1.0073797
71	0x3f7cee81	0.9880143
72	0x3f7d8fd0	0.99047565
73	0x3f8606c4	1.0470815
74	0x3f86ac23	1.0521282
75	0x3f7b16cc	0.9808166
76	0x3f7d3f9a	0.98925173
77	0x3f83768b	1.0270551
78	0x3f780829	0.9688745
79	0x3f83c677	1.0294942
80	0x3f82d869	1.0222293
81	0x3f795dea	0.97408926
82	0x3f793390	0.97344303
83	0x3f817189	1.0112773
84	0x3f823456	1.0172222
85	0x3f7f7d93	0.99800986
86	0x3f7ea561	0.994711
87	0x3f8448f9	1.033477
88	0x3f794ebc	0.97385764
89	0x3f800e29	1.0004321
90	0x3f801f5c	1.000957
91	0x3f7dd672	0.9915534
92	0x3f8239ee	1.0173929
93	0x3f7b252b	0.9810359
94	0x3f86da42	1.0535357
95	0x3f7b3d7c	0.9814069
96	0x3f78b480	0.9715042
97	0x3f7bbc6c	0.98334384
98	0x3f821a86	1.0164344
99	0x3f824b88	1.01793
100	0x3f7eb791	0.9949885
101	0x3f7e6a63	0.99381083
102	0x3f8088bc	1.0041728
103	0x3f840ac8	1.031579
104	0x3f7dfd3b	0.99214524
105	0x3f811092	1.0083182
106	0x3f7c9a11	0.98672587
107	0x3f829bd3	1.0203804
108	0x3f7baf66	0.9831451
109	0x3f78482a	0.96985114
110	0x3f818642	1.0119097
111	0x3f80e638	1.0070257
112	0x3f7b8aa4	0.98258424
113	0x3f88467b	1.0646509
114	0x3f7c14ff	0.9846954
115	0x3f87b0d9	1.0600845
116	0x3f834b24	1.0257306
117	0x3f7f640a	0.9976202
118	0x3f872ae6	1.0559967
119	0x3f7c371b	0.98521584
120	0x3f7df736	0.9920534
121	0x3f837162	1.0268977
122	0x3f7fff94	0.99999356
123	0x3f81d135	1.014197
124	0x3f89587e	1.0730131
125	0x3f860886	1.0471351
126	0x3f78086c	0.9688785
127	0x3f7cb1d9	0.98708874
128	0x3f7a8b4e	0.9786881
129	0x3f810f87	1.0082864
130	0x3f7741b4	0.9658463
131	0x3f7fe22e	0.999545
132	0x3f7cac88	0.9870076
133	0x3f783407	0.9695439
134	0x3f8a38ff	1.0798644
135	0x3f807667	1.0036134
136	0x3f815a91	1.0105764
137	0x3f8136b0	1.0094814
138	0x3f7b5755	0.98180133
139	0x3f7e93f8	0.9944453
140	0x3f7eb1b1	0.99489886
141	0x3f793665	0.97348624
142	0x3f7c86d0	0.9864321
143	0x3f7f1084	0.99634576
144	0x3f7d8415	0.99029666
145	0x3f8360a5	1.0263869
146	0x3f7a2105	0.97706634
147	0x3f7ec35b	0.9951684
148	0x3f80cb3a	1.006202
149	0x3f8727c2	1.0559008
150	0x3f839974	1.0281205
151	0x3f7d06a7	0.98838276
152	0x3f865d97	1.0497311
153	0x3f7bb215	0.98318607
154	0x3f7e8542	0.99422085
155	0x3f748221	0.9551106
156	0x3f821035	1.0161196
157	0x3f7febc5	0.9996913
158	0x3f7400ac	0.95313525
159	0x3f878498	1.0587339
160	0x3f832a13	1.0247215
161	0x3f80b48d	1.00551
162	0x3f845389	1.0337993
163	0x3f807c4d	1.0037934
164	0x3f7dc1ee	0.9912404
165	0x3f76a76d	0.9634922
166	0x3f88a6c9	1.0675899
167	0x3f82368f	1.01729
168	0x3f7972bf	0.97440714
169	0x3f788a9b	0.97086495
170	0x3f7d954b	0.9905593
171	0x3f802ada	1.0013077
172	0x3f8576ba	1.0426857
173	0x3f7ffdc1	0.9999657
174	0x3f811b68	1.0086489
175	0x3f8336cd	1.0251099
176	0x3f80b994	1.0056634
177	0x3f808a11	1.0042135
178	0x3f7d3d51	0.98921686
179	0x3f805597	1.002612
180	0x3f823bb6	1.0174472
181	0x3f7f0661	0.9961911
182	0x3f7adea0	0.9799595
183	0x3f808676	1.0041034
184	0x3f80c697	1.0060605
185	0x3f76dabb	0.96427506
186	0x3f805f81	1.0029145
187	0x3f810974	1.008101
188	0x3f7ca46f	0.98688406
189	0x3f79e67b	0.9761731
190	0x3f84aae0	1.0364647
191	0x3f80945c	1.0045276
192	0x3f7cf345	0.988087
193	0x3f7cc062	0.9873105
194	0x3f811117	1.008334
195	0x3f849496	1.0357845
196	0x3f869fc3	1.0517505
197	0x3f7e2e5e	0.992895
198	0x3f80516f	1.0024852
199	0x3f7bf2d5	0.9841741
200	0x3f8211eb	1.0161718
201	0x3f7c834f	0.9863786
202	0x3f78f4bf	0.9724845
203	0x3f7d8ae9	0.99040085
204	0x3f857170	1.0425243
205	0x3f83821e	1.0274084
206	0x3f819ddc	1.01263
207	0x3f7743a9	0.96587616
208	0x3f7d1a66	0.98868406
209	0x3f79be03	0.9755556
210	0x3f79bd07	0.9755406
211	0x3f854cc1	1.0414048
212	0x3f7f99b1	0.9984389
213	0x3f7f293b	0.9967229
214	0x3f83f8da	1.0310318
215	0x3f8099e2	1.0046961
216	0x3f826709	1.0187694
217	0x3f7ce550	0.98787403
218	0x3f7f2961	0.99672514
219	0x3f83d27d	1.0298611
220	0x3f8349fe	1.0256956
221	0x3f81694f	1.0110263
222	0x3f83bd91	1.0292226
223	0x3f782de3	0.9694502
224	0x3f7e0aeb	0.9923541
225	0x3f7c47e0	0.9854717
226	0x3f84cb7a	1.0374596
227	0x3f82ca1e	1.0217931
228	0x3f8042eb	1.0020422
229	0x3f8287ba	1.019767
230	0x3f819f70	1.0126781
231	0x3f80e8be	1.0071027
232	0x3f830aa2	1.023762
233	0x3f7b67d9	0.98205334
234	0x3f822bf5	1.0169665
235	0x3f843458	1.0328474
236	0x3f81970a	1.0124218
237	0x3f7cbc1d	0.9872454
238	0x3f820224	1.0156903
239	0x3f814668	1.0099611
240	0x3f804d16	1.0023525
241	0x3f844f66	1.033673
242	0x3f81368c	1.0094771
243	0x3f7d18a1	0.98865706
244	0x3f85919d	1.0435063
245	0x3f850dee	1.0394876
246	0x3f8f861c	1.1212802
247	0x3f7eb71a	0.9949814
248	0x3f78b891	0.97156626
249	0x3f83deaf	1.0302333
250	0x3f81fd5e	1.0155447
251	0x3f790c7d	0.9728468
252	0x3f7cfe11	0.98825175
253	0x3f85edb3	1.0463165
254	0x3f82d46e	1.0221078
255	0x3f806a76	1.0032489

bias f4 [256]
0	0x3b35256a	0.0027640709
1	0x3cc468e7	0.023975803
2	0xb995f094	-0.0002859874
3	0x3c9ebfed	0.019378627
4	0x3d37ee39	0.04490492
5	0xbc826466	-0.015917014
6	0xbc41859f	-0.011811643
7	0xbc83b6db	-0.016078403
8	0x3d2a34fd	0.04155444
9	0x3c8b5e52	0.017012749
10	0x3d646165	0.055756945
11	0x3b1d7a2d	0.0024029121
12	0x3c0ff70b	0.008786927
13	0x3cb2abbc	0.021810405
14	0x3d1e2c57	0.038616505
15	0x3a99a6d7	0.0011722696
16	0xbb6e9524	-0.0036404813
17	0x3b44895c	0.00299891
18	0x3c6a32dd	0.014294353
19	0xba4b7c6f	-0.00077623775
20	0xbc935bc0	-0.017988086
21	0x3cbd8fb6	0.023139816
22	0x3c96d224	0.01841075
23	0x3caf4d5f	0.021399198
24	0x3cf31f0c	0.02967789
25	0x3c30fd13	0.010802525
26	0xbc3a0b14	-0.01135518
27	0x3ce81291	0.028329166
28	0xbb18b24d	-0.0023299635
29	0x3d57e310	0.052706778
30	0x3cc2fe6b	0.023802957
31	0x3d120197	0.035646047
32	0x3cb59f21	0.022170605
33	0xbb19c065	-0.0023460623
34	0x3d258687	0.0404115
35	0xbc615a86	-0.013754493
36	0x3ca88192	0.020569596
37	0xbc2156eb	-0.009847383
38	0xba612c20	-0.0008589644
39	0x3b5c4028	0.0033607576
40	0xb99e8aae	-0.00030239433
41	0x3d207022	0.03916944
42	0x3a912a61	0.0011075252
43	0xbc1a6c3d	-0.00942522
44	0xbc6264ca	-0.013817975
45	0x3ca40f8f	0.02002695
46	0x3baab37a	0.0052093836
47	0xbcdd46eb	-0.027011355
48	0x3c0d79ba	0.008634979
49	0xbb5a55d1	-0.003331531
50	0x3b96462e	0.004586003
51	0x3d70c8bc	0.058785185
52	0x3c6533fa	0.013989443
53	0x3bd93bd6	0.0066294475
54	0xbce94fec	-0.028480493
55	0xbbe0ea66	-0.00686388
56	0x3b675c4a	0.0035302811
57	0xbbceead9	-0.006314617
58	0x3c850812	0.0162392
59	0xbce88848	-0.028385296
60	0xbc87fed8	-0.016601011
61	0x3c8b5f7e	0.017013308
62	0x3b1e8b3a	0.0024191872
63	0x3cbb5f8f	0.022872714
64	0x3ce3d2fb	0.027810564
65	0x3d3ebaa3	0.04656471
66	0x3c038177	0.008026472
67	0x3cb7f499	0.0224555
68	0xbbc7be0e	-0.0060956543
69	0x3d1d48d2	0.038399525
70	0x3c868ef8	0.016425595
71	0x3b85ce8b	0.0040834597
72	0xbbd67386	-0.006544533
73	0x3d71e64d	0.059057523
74	0x3c1f1c6f	0.009711369
75	0xbc1d46d6	-0.009599408
76	0x388403a8	6.2949315e-05
77	0x3d13ddc9	0.036100183
78	0xbce0b8ee	-0.027431931
79	0x3d14324e	0.036180787
80	0x3cf361ed	0.02970978
81	0xbc272d0d	-0.010203612
82	0xbc1722a7	-0.00922457
83	0x3c064327	0.008194721
84	0x3cd0591b	0.025433114
85	0x3b9bffdd	0.004760726
86	0xbbee3630	-0.0072696432
87	0x3d36faba	0.044672705
88	0xbb3cbec0	-0.002880022
89	0x3c7084b9	0.014680081
90	0x3c7cdf27	0.015434063
91	0xbc8a1d91	-0.016859801
92	0x3d15d70a	0.03658203
93	0xbc6e6a94	-0.014551777
94	0x3c864195	0.016388694
95	0xbc03234d	-0.008004022
96	0xbc6da33a	-0.014504248
97	0xbbb7fc58	-0.0056147985
98	0x3c84c4dd	0.016207153
99	0x3c8b7f4e	0.017028477
100	0xbc84fc0b	-0.016233465
101	0x3bc990e0	0.0061513036
102	0xbc52b26e	-0.012859924
103	0x3d76c3c1	0.06024528
104	0x3c0695b6	0.008214405
105	0x3cc15bfb	0.02360343
106	0xbbbb638b	-0.0057186536
107	0x3cec0a6a	0.02881356
108	0xba781be0	-0.0009464603
109	0xbcb41a6f	-0.02198526
110	0x3c97b74b	0.018520018
111	0x3cf41e47	0.029799594
112	0xbbad3083	-0.005285324
113	0x3d88a50a	0.06672104
114	0xbbb93566	-0.0056521175
115	0x3cd89e06	0.026442539
116	0x3d1a0fda	0.037612773
117	0x3aa973f1	0.001292823
118	0x3cd2fe9d	0.025756175
119	0xbc216359	-0.0098503465
120	0x3c0e341f	0.008679419
121	0x3cf87d9d	0.030333335
122	0x3c2374f5	0.009976615
123	0x3c45cb28	0.012072362
124	0x3d0a0323	0.033694398
125	0x3cd8bb07	0.02645637
126	0xbd03c711	-0.032172266
127	0xbb684ca9	-0.0035446084
128	0xbc9f8d66	-0.019476604
129	0x3cba88bf	0.022770284
130	0xbc802c1a	-0.01564603
131	0x3c2d098d	0.010561359
132	0xbc0478b0	-0.008085415
133	0xbc730b6a	-0.014834264
134	0x3db85e97	0.090024166
135	0x3c9e9c80	0.019361734
136	0x3c1fa58c	0.009744059
137	0x3c50506f	0.012714489
138	0xbc18805a	-0.009307945
139	0x3bf84ad9	0.007577282
140	0xbc0e08a0	-0.008669049
141	0xbc8cdd56	-0.017195385
142	0xbb726821	-0.0036988335
143	0x3c33de1c	0.010978248
144	0xbbc69213	-0.006059894
145	0x3d20ee2b	0.039289635
146	0xbc8f9ab9	-0.017529832
147	0xbbac21c4	-0.0052530486
148	0x3cb54b39	0.022130596
149	0x3d5e546e	0.054279737
150	0x3cfe1393	0.031015193
151	0xbbea6949	-0.0071536642
152	0x3d216867	0.039406206
153	0xbc0b1951	-0.008489923
154	0xba946d76	-0.0011324126
155	0xbd225df1	-0.03964037
156	0x3ce79117	0.028267426
157	0xbc7b210e	-0.015327705
158	0xbd025ad4	-0.0318249
159	0x3d7aae12	0.061201163
160	0x3cd6a1e4	0.026200242
161	0x3c69cad3	0.0142695485
162	0x3cce3b4f	0.025174765
163	0xbc70e6b8	-0.014703445
164	0x3be547a0	0.0069970638
165	0xbcaec058	-0.021331951
166	0x3cef6290	0.029221803
167	0x3cd0f494	0.025507249
168	0xbc9dfd9c	-0.01928597
169	0xbc464767	-0.012101985
170	0xbb6fd23b	-0.0036593813
171	0x3bf8020a	0.0075686025
172	0x3d8e2bf3	0.069419764
173	0x3c19948a	0.009373793
174	0x3cbcfc6b	0.023069581
175	0x3ba8d7a3	0.005152659
176	0x3ce6c0a0	0.028168023
177	0x3c0e684d	0.008691859
178	0xbc33e827	-0.010980642
179	0x3c5c3639	0.013440662
180	0x3cc505f5	0.024050692
181	0x3b6e6897	0.0036378258
182	0xbbce10a3	-0.0062886043
183	0x3b75f6b1	0.0037531073
184	0x3c8ebf00	0.01742506
185	0xbca5a271	-0.02021906
186	0x3b55b8f7	0.0032611468
187	0x3c293b4c	0.010329079
188	0xbc516aad	-0.012781781
189	0xbc24c3c5	-0.010056441
190	0x3d8f94f9	0.07010836
191	0x3ca517bc	0.020152919
192	0x39306a1b	0.00016824195
193	0x3a1a46fe	0.00058852124
194	0x3c8f85ad	0.017519796
195	0x3d20b2a8	0.03923288
196	0x3d333afa	0.043757416
197	0xba032468	-0.00050026784
198	0x3c2b7091	0.01046385
199	0xbc02d13b	-0.007984455
200	0x3c9796e0	0.01850456
201	0xbbe73422	-0.0070557753
202	0xbc262f29	-0.01014308
203	0x3be28938	0.0069133304
204	0x3d72ce06	0.05927851
205	0x3d17caec	0.037058756
206	0x3ceb8108	0.02874805
207	0xbc9eedf5	-0.019400576
208	0xbb638f15	-0.0034722735
209	0xba847f9c	-0.0010108831
210	0xbc63a975	-0.013895382
211	0x3cfa212b	0.030533394
212	0x3c4930d9	0.012279713
213	0x3be81af0	0.0070832893
214	0x3d0f3f7d	0.034972657
215	0x3c9022bd	0.01759469
216	0x3b9477a3	0.0045308634
217	0xbb99666c	-0.004681399
218	0x3b377b4b	0.0027997072
219	0x3d191c26	0.03738036
220	0x3d362c9e	0.044476144
221	0x3c2796db	0.010228838
222	0x3d0c5661	0.034262065
223	0xbc494bda	-0.012286151
224	0x3b16a565	0.0022986766
225	0xbb0820fa	-0.0020771609
226	0x3d76e1d4	0.06027396
227	0x3ce494b4	0.027902938
228	0x3c075a5e	0.008261291
229	0x3d54e4ce	0.051976018
230	0x3d0425cb	0.032262605
231	0x3c1e6dc7	0.009669728
232	0x3ce5ef19	0.028068112
233	0xbb310eb4	-0.002701682
234	0x3d07da0a	0.033166923
235	0x3c13113b	0.008976276
236	0x3c68d7b6	0.014211586
237	0xbc3e4360	-0.011612743
238	0x3a0f6e2b	0.00054714334
239	0x3c96801c	0.018371634
240	0x3c80d9fd	0.015728945
241	0x3d23179b	0.039817434
242	0x3c55ebd2	0.013056712
243	0xbbcfd9e8	-0.006343115
244	0x3d948398	0.07251662
245	0x3d86e46e	0.06586538
246	0x3d70bfb8	0.058776587
247	0x3ba0eb61	0.004910872
248	0xbc825b51	-0.015912684
249	0x3d30b4ad	0.043141056
250	0x3cedf9fb	0.029049864
251	0xbceb14a0	-0.028696358
252	0x3b37888d	0.0028004975
253	0x3d194dc8	0.037427694
254	0x3ca738e1	0.020412864
255	0x3bd0d5a2	0.0063731233

running_mean f4 [256]
0	0x3b647447	0.0034859346
1	0x3bc8b1df	0.0061247195
2	0xbabf4464	-0.0014592526
3	0xbba29f0d	-0.004962808
4	0x3b9db5fb	0.0048129535
5	0xbadaf92c	-0.0016706339
6	0x3a7e38f9	0.00096978206
7	0x3b2321d7	0.0024891996
8	0xba59e217	-0.0008311583
9	0xbb52eb35	-0.0032183651
10	0xbaf3af22	-0.0018591622
11	0x3bf7c27e	0.007561027
12	0xbc05e199	-0.008171462
13	0x3aff46ea	0.001947609
14	0xbb47406f	-0.0030403396
15	0xbbb2d148	-0.005457077
16	0x3c239de2	0.009986373
17	0xbc1459c9	-0.00905461
18	0xba7585da	-0.0009365954
19	0x3b7f1d81	0.0038927498
20	0xbb9a8051	-0.0047150035
21	0x3bf901cb	0.0075990907
22	0x3c24298b	0.01001967
23	0x3bcdce78	0.0062807165
24	0x3c3023d9	0.010750734
25	0x3a6dc1e8	0.0009069727
26	0xba4772fb	-0.0007608381
27	0x3be49ed5	0.006976942
28	0x3b077611	0.0020669738
29	0x3bf1e229	0.0073816967
30	0x39eea04b	0.00045514325
31	0x3c0336bd	0.008008656
32	0x3c01e1d4	0.007927377
33	0xbbf8854a	-0.0075842487
34	0xbc2946eb	-0.01033185
35	0xbb5714a3	-0.0032818697
36	0xbbe63ae7	-0.0070260647
37	0x3b895847	0.0041914317
38	0x3c0124c7	0.007882304
39	0x3aadd55b	0.0013262437
40	0xbb17aefd	-0.0023145073
41	0xbb81a5f4	-0.0039565507
42	0x3a2d1013	0.00066018215
43	0xbbd3da54	-0.0064652357
44	0xbb834c79	-0.004006919
45	0xbc0bf6d6	-0.008542737
46	0xbbd3a74a	-0.0064591514
47	0x3ad4158f	0.0016180741
48	0xbbcf8232	-0.006332659
49	0xbb1c3408	-0.0023834724
50	0x3c099983	0.008398416
51	0xb99be075	-0.00029731137
52	0x3b9c7acd	0.004775381
53	0xbb457865	-0.0030131575
54	0x3b49920b	0.0030757214
55	0xbb225fad	-0.0024776265
56	0xbafb911b	-0.0019193025
57	0x3c2d9b6b	0.010596137
58	0x3be843d0	0.007088162
59	0x3b9e6971	0.004834347
60	0x3bd2c3d6	0.006432037
61	0x3a3eed39	0.0007283274
62	0xb96365a4	-0.00021686271
63	0xbaef70fb	-0.0018267924
64	0xba80fbbe	-0.000984065
65	0x3c3f8cbf	0.011691271
66	0xbb70e4f0	-0.003675755
67	0x3b78d4f2	0.0037968722
68	0xbb74719e	-0.0037299166
69	0x3cb41e77	0.021987183
70	0x3b81cf35	0.0039614686
71	0x3c26423b	0.0101476265
72	0x3c2311b1	0.009952948
73	0x37c70d29	2.3728777e-05
74	0xbc4a3d23	-0.012343678
75	0xbaa0a2ca	-0.0012255546
76	0x3b770b81	0.0037696066
77	0xbbffaefc	-0.007802842
78	0xbbaacf31	-0.0052126874
79	0x3b14322d	0.0022612915
80	0x3b260e3f	0.0025338081
81	0xbbd26933	-0.006421232
82	0x3bcfbcda	0.0063396515
83	0xba747ce7	-0.0009326473
84	0x3ac68982	0.0015147182
85	0xbbab0372	-0.0052189166
86	0x3b134378	0.0022470634
87	0x3bdac46d	0.006676248
88	0xbaef81b3	-0.0018272906
89	0x3bc5c236	0.0060351146
90	0x3bee715d	0.0072766975
91	0xbc660cd3	-0.0140411435
92	0x3b93597b	0.004496751
93	0x3aa3a6fc	0.0012485678
94	0xbb9c7f3e	-0.0047759106
95	0xbbeb645b	-0.007183594
96	0xbbe71811	-0.0070524295
97	0x3b0f2ca6	0.002184668
98	0x3be28a63	0.0069134696
99	0xba006a7b	-0.00048986793
100	0xbc00f3ce	-0.007870628
101	0x3c204a56	0.009783348
102	0x3a84a1ad	0.0010118984
103	0xbbb5bd33	-0.005546236
104	0x3b4f9ffb	0.003168105
105	0xbbd9e0ee	-0.006649128
106	0x3c61c264	0.0137792565
107	0x3c0ea0bb	0.008705313
108	0x3b53daaa	0.003232638
109	0x3b2a328c	0.002597007
110	0x3a981824	0.0011603874
111	0x3c015496	0.007893702
112	0x3b3d4523	0.002888032
113	0xbc080fdd	-0.008304563
114	0x3b8c575d	0.0042828755
115	0xbbcf79d0	-0.00633166
116	0x3c98315d	0.018578226
117	0x3b1894f7	0.002328215
118	0xbb024ae5	-0.0019881066
119	0xbbf4b0e0	-0.007467374
120	0xbbc1e036	-0.0059166206
121	0xbb5a6e79	-0.0033330007
122	0xbc52ffc3	-0.012878361
123	0xbaa7ffd6	-0.0012817334
124	0xbc8726c0	-0.01649797
125	0xbb2d4152	-0.002643664
126	0x3c14fb16	0.009093067
127	0x3b13ed51	0.0022571872
128	0x3c4b840c	0.012421619
129	0xbb1cf301	-0.0023948553
130	0xbab43322	-0.0013748149
131	0x3b91708b	0.004438465
132	0xbbf6be78	-0.00753003
133	0x3c19c527	0.009385384
134	0x3b14ad57	0.0022686326
135	0x3c059873	0.0081540225
136	0x3c463912	0.012098568
137	0xb8d8dadb	-0.000103404476
138	0x3bca420e	0.006172425
139	0x3b66e19b	0.0035229686
140	0xbc220204	-0.009888176
141	0x3a9cc17a	0.0011959516
142	0xbbfe5677	-0.0077617723
143	0x3c06fe76	0.008239379
144	0x3a97d1f2	0.0011582954
145	0x3ab24f8f	0.0013604033
146	0x3ba27577	0.0049578506
147	0xbac5fc7c	-0.0015105153
148	0x3c3f6412	0.011681573
149	0x3b28465d	0.0025676705
150	0xbabc01e9	-0.0014343831
151	0x3b96419b	0.0045854575
152	0x3ba801e0	0.0051271766
153	0xbb60e545	-0.0034316343
154	0xbae66217	-0.001757684
155	0xbc21c410	-0.009873405
156	0x3c198b83	0.009371641
157	0xbc06c6ba	-0.008226091
158	0x3b96fbae	0.0046076393
159	0x3bbf714c	0.0058423635
160	0x3bfea418	0.0077710263
161	0x3b9bdee1	0.004756794
162	0xb9fca089	-0.00048184794
163	0xbaf418c0	-0.0018623099
164	0xbbc12f5b	-0.005895538
165	0x3c25fdad	0.010131282
166	0xbb92bd11	-0.004478105
167	0x3a98c87c	0.0011656429
168	0x3b6273cd	0.0034553886
169	0x3c3019d6	0.010748347
170	0x3b9ff31c	0.004881276
171	0xb8182420	-3.6273268e-05
172	0x3af21a7e	0.001847103
173	0x39627fe1	0.00021600678
174	0x3c0ca614	0.008584518
175	0xbc32b596	-0.010907551
176	0x3b258d77	0.0025261322
177	0xbb645b9e	-0.0034844647
178	0xbaddab26	-0.0016911968
179	0x3bf07377	0.007337983
180	0x3b27a51f	0.0025580598
181	0x3c39bb0b	0.011336098
182	0xbb44f39e	-0.0030052434
183	0xbb807e6c	-0.0039213207
184	0xbacda018	-0.001568797
185	0x3c7d91ed	0.015476686
186	0xbbfcc550	-0.007713951
187	0xbb996f27	-0.00468244
188	0xbb5f16e8	-0.0034040753
189	0xbb7a532a	-0.0038196542
190	0xba123192	-0.00055768446
191	0x3ba3f514	0.005003581
192	0x3c272ea3	0.01020399
193	0x3c3a7f22	0.01138285
194	0xbbafaa7d	-0.0053609
195	0x3c00607f	0.007835506
196	0xba867f71	-0.0010261369
197	0x3caf50ab	0.02140077
198	0x3b82491e	0.0039760014
199	0x3ac9bbda	0.0015391067
200	0x3c24f3e0	0.01006791
201	0xbaf3ef47	-0.0018610739
202	0xbc425c67	-0.011862851
203	0xbac7b917	-0.0015237656
204	0x3b0a1441	0.0021069201
205	0x3b66f961	0.0035243856
206	0x3bc64258	0.0060503893
207	0xbc3d4d20	-0.011554033
208	0xbbaa0e2c	-0.0051896777
209	0xbb5a99b5	-0.0033355777
210	0x399f3839	0.00030368732
211	0xbad3ab5c	-0.0016149092
212	0x3c056526	0.008141791
213	0xbb80e5dc	-0.0039336514
214	0x3bfd3166	0.007726836
215	0xbb463f32	-0.003025007
216	0x3ba538af	0.0050421576
217	0xbbff546e	-0.007792047
218	0xbbbccdf3	-0.0057618557
219	0x3b19c935	0.0023465876
220	0xbbf3e175	-0.007442648
221	0xbba0e55e	-0.004910155
222	0xbaaf4086	-0.001337067
223	0x3c5e3106	0.013561493
224	0x3bfd0b5c	0.0077223014
225	0xb891d104	-6.953071e-05
226	0xbbf8374a	-0.0075749503
227	0x3c21ab7d	0.009867546
228	0x389699f3	7.181233e-05
229	0x3ab9ae7e	0.0014166383
230	0xbac963bc	-0.0015364806
231	0x3b890663	0.0041816696
232	0x3c4eb02c	0.012615245
233	0x3c29c9b0	0.010363027
234	0x3ad28dab	0.0016063949
235	0x3b1e9768	0.0024199132
236	0xbaa9e916	-0.0012963142
237	0x3b957713	0.004561314
238	0x3a577f50	0.000822057
239	0xbb63d262	-0.003476285
240	0xbc346a64	-0.011011694
241	0xbba6feaf	-0.0050962786
242	0x3c0bc2be	0.008530317
243	0x3c1c783b	0.00955015
244	0xbb51d609	-0.0032018444
245	0x3c5a0639	0.013307148
246	0xbc01ca68	-0.007921793
247	0xbb82e0de	-0.0039940914
248	0x3aef36d2	0.0018250591
249	0x3c01a948	0.007913895
250	0x3bbe9487	0.0058160457
251	0xbb6ab575	-0.0035813723
252	0xbabb8aa0	-0.0014308281
253	0x3acff168	0.0015864791
254	0x3b0fd883	0.002194912
255	0x3be03b5b	0.006843013

running_var f4 [256]
0	0x3ece2457	0.402621
1	0x3eba2ab8	0.36360717
2	0x3ea817b6	0.3283059
3	0x3ebb0fa5	0.36535373
4	0x3ed81dba	0.4221018
5	0x3edcbfde	0.43115133
6	0x3ec8382c	0.39105356
7	0x3eb0334f	0.34414145
8	0x3eaafa12	0.33393914
9	0x3ec2f200	0.38075256
10	0x3eb3ea6f	0.35139796
11	0x3eb88702	0.36040503
12	0x3ed963dc	0.42459
13	0x3eb65f05	0.3561937
14	0x3eccb31c	0.399804
15	0x3eb8840d	0.36038247
16	0x3ecead25	0.40366474
17	0x3ea25cee	0.31711525
18	0x3ea5f240	0.32411385
19	0x3eafdb5e	0.3434705
20	0x3eadb327	0.33925745
21	0x3eb28560	0.34867382
22	0x3ea77472	0.32706028
23	0x3eb9e760	0.36309338
24	0x3ebf82bf	0.3740444
25	0x3ea9a88b	0.331364
26	0x3ea2372f	0.31682727
27	0x3ebd5fbe	0.36987108
28	0x3eab9fbe	0.3352031
29	0x3ec68c00	0.38778687
30	0x3eb6f5ce	0.3573441
31	0x3eaff7da	0.34368783
32	0x3eb53e72	0.35399204
33	0x3eb9c267	0.3628113
34	0x3ebb12f5	0.365379
35	0x3ea70dbc	0.32627666
36	0x3eca5051	0.39514402
37	0x3ea215c9	0.31657246
38	0x3ebf0030	0.3730483
39	0x3eb59adc	0.3546971
40	0x3eb0662a	0.34452945
41	0x3eb2bf0a	0.34911376
42	0x3eb10bb5	0.34579244
43	0x3ebebf28	0.37255216
44	0x3ec5099e	0.384839
45	0x3ea4f329	0.32216766
46	0x3e9e7144	0.3094579
47	0x3eb7aa4a	0.35872108
48	0x3eb455ba	0.35221654
49	0x3eaeea47	0.34163114
50	0x3eb3c290	0.35109377
51	0x3eb5dade	0.35518545
52	0x3eb4123d	0.35170165
53	0x3ed5605f	0.41675088
54	0x3ec4d433	0.38443145
55	0x3ea6054b	0.32425913
56	0x3ec09580	0.3761406
57	0x3e9b5e2e	0.3034529
58	0x3eaf4922	0.34235483
59	0x3e9c5e5c	0.3054074
60	0x3eb72ab6	0.35774773
61	0x3eb8a9a1	0.36066917
62	0x3e9e216b	0.3088487
63	0x3ec1795a	0.37787896
64	0x3ec28c11	0.37997487
65	0x3ebf17d8	0.3732288
66	0x3ebd0bb7	0.36923
67	0x3eb5ccb9	0.35507753
68	0x3ec62f3e	0.38707918
69	0x3ea0621d	0.31324854
70	0x3eb83923	0.35981092
71	0x3eab1d11	0.33420613
72	0x3ebca789	0.3684657
73	0x3ea9708b	0.33093676
74	0x3eb30b9c	0.34969795
75	0x3eb74545	0.35795036
76	0x3eb051a7	0.34437296
77	0x3eb2486b	0.34820876
78	0x3ec54f6d	0.3853716
79	0x3ec443cf	0.38332984
80	0x3eb97385	0.36220947
81	0x3eaf1817	0.34198067
82	0x3ebb97f3	0.36639366
83	0x3eb8c650	0.360888
84	0x3eb063df	0.34451196
85	0x3eb7db96	0.35909718
86	0x3ece8980	0.4033928
87	0x3e9ce4dd	0.3064336
88	0x3eb8756a	0.3602708
89	0x3e9f58c4	0.3112241
90	0x3eaba2ff	0.33522794
91	0x3ea4e382	0.32204825
92	0x3ea7361b	0.32658467
93	0x3ec36d66	0.38169402
94	0x3eba97c4	0.36443913
95	0x3eb1943a	0.346834
96	0x3eb9a40f	0.3625798
97	0x3ebf0a72	0.37312657
98	0x3eb927c3	0.36163148
99	0x3ebf820e	0.3740391
100	0x3ed44408	0.41458154
101	0x3ec0e50f	0.37674758
102	0x3eb167bd	0.3464946
103	0x3ecd6f25	0.4012386
104	0x3ed0d4bf	0.40787312
105	0x3eb835b7	0.3597848
106	0x3eb0b278	0.3451116
107	0x3eac2aba	0.33626348
108	0x3ec205e5	0.37895122
109	0x3ea31217	0.3184974
110	0x3ea54cb6	0.32285088
111	0x3eba595f	0.3639631
112	0x3ecdd8a3	0.40204343
113	0x3eb9fb98	0.36324763
114	0x3e87c25b	0.2651547
115	0x3eaaedf2	0.33384663
116	0x3ece45c0	0.4028759
117	0x3eb5df74	0.35522044
118	0x3ec64e09	0.3873141
119	0x3ee1139e	0.4396028
120	0x3ecc5d90	0.39915133
121	0x3ec33295	0.3812453
122	0x3ebb3120	0.36560917
123	0x3ec0eae6	0.37679213
124	0x3ebefafb	0.37300858
125	0x3ea238d0	0.3168397
126	0x3ecdcf26	0.40197104
127	0x3eb94180	0.36182785
128	0x3ec48e39	0.38389757
129	0x3ebbbdeb	0.36668333
130	0x3eb3d080	0.3512001
131	0x3ea5eb5b	0.32406124
132	0x3eb15a9b	0.3463944
133	0x3ea823e5	0.32839885
134	0x3eca7545	0.39542595
135	0x3e9f7a1a	0.31147844
136	0x3ec3183a	0.3810442
137	0x3eafa9b2	0.34309155
138	0x3eca438a	0.39504653
139	0x3e932917	0.28742287
140	0x3ea7c8e4	0.32770455
141	0x3eb14c5f	0.3462858
142	0x3eb9e2e5	0.3630592
143	0x3ebe9123	0.37220106
144	0x3ec98f66	0.39367217
145	0x3ebe9368	0.37221837
146	0x3ec5778a	0.38567764
147	0x3ebc2073	0.36743507
148	0x3eb59d1a	0.3547142
149	0x3eb8de73	0.36107215
150	0x3eb55b79	0.3542135
151	0x3ecefda0	0.40427876
152	0x3ec50e25	0.38487354
153	0x3eb6b16b	0.35682234
154	0x3eb39435	0.3507401
155	0x3ec70e4f	0.38878104
156	0x3ebca072	0.3684116
157	0x3ecfa493	0.40555248
158	0x3eb96610	0.3621068
159	0x3ead0d42	0.33799177
160	0x3e9d6cde	0.30747122
161	0x3eac02cf	0.33595893
162	0x3eb8885b	0.3604153
163	0x3ebd49b6	0.369703
164	0x3eaeca10	0.34138536
165	0x3eaf85aa	0.34281665
166	0x3ead39d2	0.33833176
167	0x3eccfff4	0.40039027
168	0x3eb49d39	0.352762
169	0x3eb32f6b	0.34997115
170	0x3ec7b69e	0.39006513
171	0x3ecc0747	0.39849302
172	0x3ea9bd19	0.33152083
173	0x3ec2c8e4	0.38043892
174	0x3eb4a1a2	0.35279566
175	0x3ea56617	0.3230445
176	0x3eb3628f	0.35036132
177	0x3eba61e9	0.36402825
178	0x3ea96dbf	0.33091542
179	0x3ec91c12	0.39279228
180	0x3eb35d5a	0.3503216
181	0x3eb63b34	0.35592043
182	0x3ea08d1f	0.31357667
183	0x3ead9c2f	0.3390822
184	0x3eafba91	0.34322026
185	0x3eb990dc	0.3624333
186	0x3eb21fa7	0.34789774
187	0x3ec53995	0.38520494
188	0x3ead9ca7	0.3390858
189	0x3eb297d7	0.3488147
190	0x3e9dd11f	0.3082361
191	0x3ec2a07c	0.38013065
192	0x3ec47a09	0.38374355
193	0x3e93754f	0.28800437
194	0x3eb2df2c	0.34935892
195	0x3ead4768	0.3384354
196	0x3eb65d11	0.3561788
197	0x3eb364c9	0.3503783
198	0x3eb5ce90	0.35509157
199	0x3ebd3a4e	0.36958545
200	0x3eb6a340	0.35671425
201	0x3eb0c62d	0.34526196
202	0x3e98e9c7	0.29865858
203	0x3ea1cab1	0.31599954
204	0x3ea62e26	0.32457083
205	0x3eca66b5	0.39531484
206	0x3eba7ce2	0.36423403
207	0x3eb6fcc7	0.3573973
208	0x3eb69c21	0.35665992
209	0x3eb3255c	0.3498944
210	0x3eb17bfd	0.34664908
211	0x3ecbe6ab	0.39824423
212	0x3e9b827e	0.30372995
213	0x3ebad399	0.3648956
214	0x3eaac6ba	0.3335474
215	0x3eaaefb2	0.33385998
216	0x3ec865ac	0.3914007
217	0x3ea600c4	0.3242246
218	0x3ebf8159	0.37403372
219	0x3eb9d67f	0.3629646
220	0x3ead889a	0.3389328
221	0x3ec92a34	0.3929001
222	0x3ebbfa50	0.3671441
223	0x3eb0e03b	0.34546074
224	0x3eb9d322	0.36293894
225	0x3e9a1491	0.30093816
226	0x3ec11479	0.37710932
227	0x3e9ffee8	0.31249166
228	0x3ea70529	0.32621124
229	0x3eb0e7de	0.345519
230	0x3e9c93a1	0.30581382
231	0x3eb0d808	0.3453982
232	0x3e9da224	0.30787766
233	0x3e9641b6	0.29347008
234	0x3eb1ed00	0.3475113
235	0x3eb643c4	0.35598576
236	0x3eb16380	0.34646225
237	0x3ea11f84	0.31469357
238	0x3ea59442	0.32339674
239	0x3ebe0428	0.37112546
240	0x3ec74cdc	0.38925827
241	0x3ec68d9a	0.38779908
242	0x3eafe865	0.3435699
243	0x3eaddd4d	0.33957902
244	0x3eb4bb1b	0.35299
245	0x3eb2cf6e	0.3492388
246	0x3eb93d8b	0.36179766
247	0x3eadcba9	0.33944443
248	0x3eb1f5e9	0.34757927
249	0x3ebe95fd	0.37223807
250	0x3eabb9cc	0.3354019
251	0x3eb20ff5	0.347778
252	0x3eb37bb0	0.35055304
253	0x3ec2d561	0.3805342
254	0x3eb0532c	0.34438455
255	0x3eb3596d	0.35029164

weight f4 [256, 384]
0	0x3d10463b	0.035223227
1	0xbcafe5e8	-0.021471933
2	0x3d71ff33	0.059081268
3	0x3bf31dea	0.0074193375
4	0x3daa5620	0.08317208
5	0xb9c1db2e	-0.0003697513
6	0x3d5eaa7a	0.054361798
7	0xbd3e3c24	-0.046444073
8	0xbcdb9eef	-0.026809184
9	0xbca95aa1	-0.020673098
10	0xbd310627	-0.043218758
11	0x3d576841	0.05258966
12	0x3c32c373	0.010910857
13	0x3cba0e6f	0.02271196
14	0x3cba1fe9	0.022720294
15	0xbc7f3e40	-0.015578806
16	0xbc1923fa	-0.009346956
17	0x3c43fe5a	0.011962498
18	0x3c0cee5f	0.008601754
19	0x3c718b89	0.01474274
20	0xbc853c46	-0.016264092
21	0x3c9b4c9b	0.018957427
22	0x3d3e4df3	0.046461057
23	0x3d8bf2aa	0.06833394
24	0x3a65ab95	0.00087612245
25	0x3ce8bd1e	0.02841049
26	0x3ccc29f9	0.024922358
27	0xbc846439	-0.016161071
28	0xba37af64	-0.0007007031
29	0xbc2586f6	-0.010102978
30	0xbcf9e73e	-0.030505773
31	0x3bdba2ce	0.0067027574
32	0x3d89828e	0.067143545
33	0xbc3c7c59	-0.011504256
34	0xbcf75d70	-0.030195922
35	0xbc0a45ad	-0.008439464
36	0x3d2fdea0	0.04293692
37	0xbd1b7206	-0.037950538
38	0xb9b1606f	-0.0003383192
39	0x3acabbb0	0.0015467312
40	0x3c4b272b	0.012399475
41	0x3d355caa	0.044277824
42	0xbd07f33e	-0.03319096
43	0xbc0766d2	-0.00826426
44	0xbc1a08c1	-0.009401501
45	0xbd3eae19	-0.04655275
46	0x3d68c8ae	0.056832008
47	0x3d3f0ede	0.046645038
48	0xbc17e6e1	-0.009271354
49	0xbd1f6f49	-0.03892449
50	0x3b3633b3	0.0027801811
51	0x3c6e12a9	0.014530816
52	0xbcf09aff	-0.029370783
53	0xbd6800ab	-0.056641262
54	0x3bb99680	0.005663693
55	0xbd337501	-0.043812755
56	0x3d6ba96d	0.057534624
57	0xba9da8b5	-0.0012028428
58	0x3d5326dc	0.05155073
59	0x3bdd50ca	0.0067540156
60	0x3d671e09	0.056425128
61	0xbb90aef4	-0.0044153873
62	0x3c2d4b96	0.010577103
63	0x3d8b5761	0.068037756
64	0xbd27b1f8	-0.04094121
65	0xbbbf3d4c	-0.0058361646
66	0x3c1439a7	0.0090469485
67	0xbcf62a43	-0.030049449
68	0xbb20e806	-0.002455236
69	0x3c6fa134	0.014625836
70	0xbccc5095	-0.024940768
71	0x3d0ee71e	0.03488838
72	0x3cf93b54	0.030423798
73	0x3d0f2911	0.034951273
74	0x3a188f60	0.00058197044
75	0xbd4739e6	-0.0486392
76	0x3c4c03e0	0.012452096
77	0xbcd50ea4	-0.026007958
78	0xbd147df9	-0.03625295
79	0x3c856a24	0.016285963
80	0x3badd9c3	0.0053055002
81	0xbd3b0b24	-0.04566492
82	0x3cee18ee	0.029064622
83	0xbd79b83b	-0.06096671
84	0x3d04f895	0.03246363
85	0x3b37511a	0.0027971924
86	0x3d27945a	0.040912963
87	0x3cbdcfdb	0.023170402
88	0x3c08988e	0.008337153
89	0xbcb31252	-0.021859322
90	0xbcceec91	-0.025259288
91	0x3c73be29	0.014876881
92	0xbd16a1b0	-0.03677529
93	0xbc5496c8	-0.012975402
94	0xbc1533f3	-0.009106624
95	0x3d3b51cc	0.045732304
96	0x3c81588c	0.015789293
97	0xbd255abb	-0.04036973
98	0xbcf25b2a	-0.029584486
99	0xbd05f44e	-0.03270369
100	0x3c98f81b	0.018672993
101	0xbd0899ca	-0.03334979
102	0x3bb41053	0.00549511
103	0xbd17ac20	-0.037029386
104	0x3af0420d	0.0018330232
105	0xbd10b888	-0.035332233
106	0xbc95a9cc	-0.018269442
107	0xbc447cb2	-0.01199262
108	0xbcf1d8a2	-0.029522244
109	0x3c9eac37	0.019369228
110	0xbcac595e	-0.021038707
111	0xbd667586	-0.056264423
112	0x3c933b82	0.017972711
113	0x3a2841a4	0.00064184726
114	0xbd338cbf	-0.043835398
115	0x3cb96cad	0.022634828
116	0xbd16ded3	-0.036833595
117	0x3d8768b3	0.06611767
118	0x3beb3f9b	0.007179213
119	0xbd346ab3	-0.04404707
120	0xbd1bd52b	-0.03804509
121	0x3ba901d0	0.005157687
122	0x3ce45ab5	0.027875284
123	0xbd4074ec	-0.046986505
124	0x3d066d3c	0.032819018
125	0xbce9e98b	-0.028553745
126	0x3c35f93f	0.011106788
127	0x3c868e10	0.016425163
128	0xbd35fd88	-0.04443124
129	0xbd7e07ed	-0.062019277
130	0x3c1a00e9	0.009399631
131	0x3cdb1f92	0.026748452
132	0x3d4feea7	0.050764706
133	0xbc1bd814	-0.009511966
134	0x3d0cb7b7	0.03435489
135	0x3d1987f9	0.03748319
136	0xbc43c3b6	-0.011948517
137	0x3d37e252	0.04489357
138	0xbc7de672	-0.015496837
139	0xbcf9184b	-0.030407092
140	0xbc027dce	-0.0079645645
141	0x3ce7057d	0.02820086
142	0xbbd8847d	-0.0066075907
143	0x3d2b443d	0.041813124
144	0x3ad915a1	0.0016562232
145	0xbd84e3ec	-0.06488785
146	0xbd3aa149	-0.04556397
147	0x3c708087	0.014679081
148	0xbc2a93b9	-0.010411196
149	0x3bb829e7	0.0056202295
150	0xbc3ae01f	-0.011405974
151	0xbcf93b20	-0.0304237
152	0xbd5c2850	-0.053749382
153	0xbcfe8d26	-0.031073164
154	0x3c18a55e	0.00931677
155	0xbc22277d	-0.00989711
156	0xbb4870be	-0.0030584778
157	0x3cb8d393	0.022561824
158	0x3d0dba97	0.034601774
159	0x3d1ffb8c	0.039058253
160	0xbc911879	-0.017711865
161	0x3d973801	0.07383729
162	0xbd1213d8	-0.035663456
163	0xbba67ded	-0.0050809295
164	0xbd6c86c4	-0.05774571
165	0x3b19bb73	0.0023457676
166	0xba246519	-0.0006271168
167	0xbaaa228e	-0.0012980269
168	0xbd1cf909	-0.038323436
169	0x3bb80bf0	0.0056166574
170	0x3cfd7215	0.030938188
171	0x3d1d7fe4	0.038452044
172	0xbd386540	-0.045018435
173	0x3bd31cf9	0.006442663
174	0xbd576eb1	-0.052595798
175	0xbd7a7789	-0.061149154
176	0x3d0dcfda	0.03462205
177	0xbcd2564b	-0.025675913
178	0x3d290811	0.04126746
179	0x3cc639dd	0.024197513
180	0xbd039db0	-0.032132804
181	0x3d0224f3	0.03177352
182	0xbc566946	-0.013086623
183	0xbce310d9	-0.027717995
184	0xbc4118d0	-0.011785701
185	0x3d2afd18	0.041745275
186	0xbc28797e	-0.010282872
187	0xbd03ca70	-0.03217548
188	0x3d497732	0.04918594
189	0x3cec707b	0.028862229
190	0x3cd83191	0.026390823
191	0xbccd16f0	-0.025035352
192	0x3caef199	0.021355437
193	0xbd3cc567	-0.046086695
194	0xbbda7708	-0.0066670217
195	0x3d9404d7	0.072274856
196	0xbd577e27	-0.052610543
197	0xbd1f2efd	-0.03886317
198	0xbce6eca7	-0.028189017
199	0xbcf69fef	-0.03010556
200	0xbcac4c11	-0.021032365
201	0xbcfaf0c0	-0.030632377
202	0x3d725ed6	0.059172474
203	0xbc6ee308	-0.014580496
204	0x3b5af5ce	0.0033410671
205	0xbd3ce3b1	-0.04611558
206	0xbccc50ee	-0.024940934
207	0x3d43e64e	0.047827058
208	0xbcaa5aea	-0.020795304
209	0x3d24f68b	0.040274184
210	0x3c5250e7	0.012836671
211	0xbbe1cbb2	-0.0068907375
212	0x3d48ea5b	0.049051624
213	0xbd4b468b	-0.049627822
214	0x3ceefa5b	0.029172113
215	0x3b5b6985	0.0033479643
216	0xbc396b6c	-0.011317115
217	0xbcdce585	-0.026964912
218	0x3cbd3f0e	0.023101356
219	0x3c015f2c	0.007896226
220	0xbd87176d	-0.06596265
221	0xbc8bb242	-0.017052773
222	0x3c0218c8	0.007940479
223	0x3c295a14	0.010336418
224	0xbd13e61a	-0.036108114
225	0xbc0083a3	-0.007843885
226	0x3d5ce31c	0.053927526
227	0xbd874a52	-0.06605972
228	0x3ceeabb6	0.029134613
229	0xbd0641eb	-0.032777708
230	0xba506330	-0.00079493504
231	0x3c338e2e	0.010959191
232	0x3cf2da3e	0.029645082
233	0xbd01d11c	-0.031693563
234	0xbd52ce01	-0.051465992
235	0xbd385180	-0.0449996
236	0xbd2b494d	-0.041817952
237	0xbd12e0fa	-0.035859086
238	0xbd2792b7	-0.040911403
239	0x3cfed353	0.031106627
240	0x3b96d795	0.004603336
241	0x3d927058	0.07150334
242	0x3d4aa33f	0.04947209
243	0x3c89e395	0.016832152
244	0x3b9ae87f	0.0047274227
245	0xbc36639c	-0.011132147
246	0xb98a987c	-0.0002643502
247	0x3b1e07f7	0.0024113634
248	0xbd11d9c9	-0.035608087
249	0xbc8b074b	-0.016971251
250	0x3c850d5b	0.01624172
251	0xbd115078	-0.03547713
252	0xbcd87d8c	-0.026427053
253	0x3daf89a0	0.08571172
254	0xbd00fbb4	-0.031490043
255	0x3cb55f2d	0.02214011
